…
mputes gradients of Loss with respect to every weights and adjusts the weights accordingly (backward pass) for next forward pass. We&#39;ll see more about optimizers in forth coming blog posts. For now, we&#39;ll use Adam which is a defacto optimizer . model.compile(optimizer=&#39;Adam&#39;,loss=keras.losses.CategoricalCrossentropy(),metrics=[&#39;accuracy&#39;]) model.summary() . Model: &#34;sequential_6&#34; _________________________________________________________________ Layer (type) Output Shape Param # ================================================================= flatten_4 (Flatten) (None, 196608) 0 _________________________________________________________________ dense_16 (Dense) (None, 1024) 201327616 _________________________________________________________________ dense_17 (Dense) (None, 512) 524800 _________________________________________________________________ dense_18 (Dense) (None, 256) 131328 _________________________________________________________________ dense_19 (Dense) (None, 10) 2570 ================================================================= Total params: 201,986,314 Trainable params: 201,986,314 Non-trainable params: 0 _________________________________________________________________ . Its showtime... . . . Warning: Please separate the train_data and val_data into images and labels separately to pass it into fit method. . train_img,train_label = next(iter(train_data))
…
ayers.Conv2D(64, 3, padding=&#39;same&#39;, activation=&#39;relu&#39;), keras.layers.MaxPooling2D(), keras.layers.Flatten(), keras.layers.Dense(128, activation=&#39;relu&#39;), keras.layers.Dense(10,activation=&#39;softmax&#39;) ]) . model2.compile(optimizer=&#39;sgd&#39;,loss=keras.losses.CategoricalCrossentropy(),metrics=[&#39;accuracy&#39;,&#39;AUC&#39;]) . model2.summary() . Model: &#34;sequential_7&#34; _________________________________________________________________ Layer (type) Output Shape Param # ================================================================= rescaling (Rescaling) (None, 256, 256, 3) 0 _________________________________________________________________ conv2d (Conv2D) (None, 256, 256, 16) 448 _________________________________________________________________ max_pooling2d (MaxPooling2D) (None, 128, 128, 16) 0 _________________________________________________________________ conv2d_1 (Conv2D) (None, 128, 128, 32) 4640 _________________________________________________________________ max_pooling2d_1 (MaxPooling2 (None, 64, 64, 32) 0 _________________________________________________________________ conv2d_2 (Conv2D) (None, 64, 64, 64) 18496 _________________________________________________________________ max_pooling2d_2 (MaxPooling2 (None, 32, 32, 64) 0 _________________________________________________________________ flatten_5 (Flatten) (None, 65536) 0 _________________________________________________________________ dense_20 (Dense) (None, 128) 8388736 _________________________________________________________________ dense_21 (Dense) (None, 10) 1290 ================================================================= Total params: 8,413,610 Trainable params: 8,413,610 Non-trainable params: 0 _________________________________________________________________ . model2.fit(train_img,train_label,epochs=10,validation_data=(val_img,val_label)) . Epoch 1/10 1/1 [==============================] - 4s 4s/step - loss: 2.2990 - accuracy: 0.1562 - auc: 0.537
…
